test/models/export.onnx (onnx, 27173 bytes, 24 tensors)

FC.bias f4 [10]
000000 4b a1 b7 bd e8 bc bc bd e8 90 fd bd 99 dd 4b 3c
       -0.08966311 -0.092157185 -0.12381154 0.01244297
000010 01 0b 8a bd e6 92 5f 3d eb de d3 3c a6 0a 2a 3d
       -0.0674038 0.054583453 0.025863132 0.04151406
000020 f3 32 8a 3d 18 a9 f8 bd
       0.06747999 -0.12141627

FC.weight f4 [10, 64]
000000 7d f4 5d bd e8 c6 f7 bd 8d d8 f3 3d 1e 2b 4e 3b
       -0.05418824 -0.12098485 0.11906538 0.0031458805
000010 8d 4e 86 3d 58 cf 9f 3d 8f 09 be bc a9 3a 9e bc
       0.06557951 0.078032196 -0.023197917 -0.01931508
000020 5d 9b 98 3b e2 f8 dc bd 35 37 87 3d e0 22 eb 3d
       0.0046571926 -0.10789658 0.06602327 0.11481261
000030 ee 74 98 3c 80 97 56 bd 1d a4 8b bd 38 45 e3 3d
       0.018610444 -0.052390575 -0.068184115 0.11097187
000040 7d 5c 1d 3d 98 59 b1 bd f5 f6 9e 3c b7 28 e0 3d
       0.03841828 -0.08659667 0.019404868 0.10945266
000050 99 72 d5 bd 46 6b 07 bd d6 cb 64 bd da 71 19 3d
       -0.104222484 -0.03306129 -0.055858456 0.037462093
000060 1f c0 42 3d 41 95 c0 3d dd cb 8d bd 23 c1 15 3c
       0.047546502 0.09403468 -0.069236495 0.009140286
000070 2f 30 e0 3d 6a 55 ae bd 5b 05 44 bb ae 87 7d bc
       0.1094669 -0.08512385 -0.0029910419 -0.015474243
000080 04 fc 58 3d bb d6 f9 3c 11 cb e7 3d 6a 99 bc 3d
       0.052974716 0.0304979 0.11318029 0.09208949
000090 55 34 1b 3c 00 43 a4 3d b4 39 cd 3c 95 98 85 bd
       0.009472926 0.08020592 0.025051929 -0.06523243
0000a0 8c 62 e8 bd 3f 73 d0 bd 2e e9 2a 3d c4 fc e9 bd
       -0.11346921 -0.101782314 0.041726284 -0.11425164
0000b0 3c f0 85 bd 9d f7 e0 3c 68 0b fd bd 09 35 79 3d
       -0.06539962 0.027461821 -0.12355691 0.060841594
0000c0 84 04 8b 3c ba 49 e0 3d 44 f9 83 3c 56 fe 44 3d
       0.016969927 0.10951562 0.01611007 0.048094116
0000d0 9b 19 56 bd 2c 91 5b 3c d3 ce 6d 3c 80 78 d8 3c
       -0.052270513 0.013401311 0.014514643 0.026424646
0000e0 9c e3 5f 3d b7 6f d2 3d 12 90 d7 bd ba 3f f1 3c
       0.054660425 0.10275214 -0.10525526 0.029449333
0000f0 05 b0 e2 bc 80 92 18 bc 1c 55 6b 3b e0 33 18 bd
       -0.027671823 -0.009312272 0.0035908883 -0.037158847
000100 20 f9 bf bd 52 a1 75 3c d1 74 37 bc 25 63 e1 bd
       -0.09373689 0.014992075 -0.011197285 -0.110052384
000110 fa 05 bd bd 1f 2a d9 3d 86 d2 a8 bd 87 ad 51 3c
       -0.092296556 0.10603737 -0.08243279 0.01279772
000120 34 b8 ba 3d 5a 2d c1 bd d8 d7 a8 bd 06 fe 7a 3d
       0.09117165 -0.09432478 -0.08244294 0.061277412
000130 1e 97 b1 3d 4f bf 5f 3c 97 d7 b6 bd 5a 90 00 bc
       0.086714014 0.013656451 -0.08927839 -0.007846916
000140 e4 8f b4 bb cf ad 59 3d ec 1c 0d 3c b0 73 d3 bd
       -0.005510317 0.053144272 0.008612853 -0.103248
000150 8f 19 a3 bd 2c 2f ae 3d 30 42 e7 3c 25 d6 e7 bd
       -0.07963859 0.08505091 0.028229803 -0.11320142
000160 73 cc 33 bd 5e b9 0c 3d ed 48 94 3d 99 fd 44 bd
       -0.04389615 0.034356467 0.07240472 -0.048093412
000170 92 12 58 3d f3 e2 63 bd 34 be f2 3c 77 45 ef 3d
       0.052752085 -0.055636358 0.029631712 0.11683171
000180 4e d4 cd bd d1 17 dc bd 14 ae a5 3d ee 5d 1c bc
       -0.100502595 -0.1074673 0.080898434 -0.009543879
000190 69 17 1d 3c 59 a5 49 bd e1 e4 86 3d d2 3f c9 bc
       0.009588101 -0.049229953 0.06586624 -0.024566565
0001a0 51 0e f9 3c 51 dd 8d 3d 5d 91 79 bb 1e 57 ee 3d
       0.030402334 0.069269784 -0.0038081028 0.1163771
0001b0 c4 0c 86 bd d9 9d a8 3d 2d f5 fd 3d 02 cf 8f bd
       -0.065454036 0.08233232 0.12400279 -0.070219055
0001c0 03 64 a8 bd 36 d1 80 bd cd 6f 00 3c 1b 3c 92 3d
       -0.08222201 -0.06289904 0.007839155 0.071403705
0001d0 34 96 7d 3d f3 93 77 bb ac 53 c1 bd 69 a0 c1 3d
       0.061910823 -0.0037777394 -0.09439787 0.09454424
0001e0 db 16 da 3d 0b 7a 1c 3d 29 47 85 3d 16 b8 f2 3d
       0.106488906 0.038202327 0.06507713 0.11851518
0001f0 4c ff 8c bd 51 5b d1 bd 67 f9 19 bc f5 96 d3 bd
       -0.068846315 -0.10222495 -0.009397841 -0.10331527
000200 f5 cc e5 3d 0a bd 9a 3d 0e 37 e1 3d 02 87 f0 3d
       0.11220733 0.075555876 0.10996829 0.11744501
000210 ab 43 11 3d ef 20 ae 3d 4f 07 24 bd 2b 4e d5 3d
       0.035464924 0.08502375 -0.040046033 0.104153
000220 35 d5 a5 bd 33 65 ec bd af fa 63 3d 8a 6b 3a bd
       -0.08097307 -0.1154274 0.055658992 -0.045512713
000230 1d a9 51 3c 60 20 e8 bd 6d e6 ec bd 9c 1d ab 3d
       0.012796667 -0.113343 -0.11567388 0.08355257
000240 d3 bd 3d bd a5 21 af bd 99 2d f1 3d cd 14 49 3d
       -0.04632361 -0.08551339 0.11776275 0.049092103
000250 61 95 8b bc 8d 32 23 3d 73 d2 df bd a8 a5 fc 3d
       -0.017039003 0.03984313 -0.10928812 0.12336284
000260 6a 92 74 bd 6b 1e 87 39 23 58 80 bb 8a 76 1a 3d
       -0.059709944 0.0002577187 -0.0039167567 0.037710704
000270 99 0a e4 bd 2b 96 60 3d f3 1a 17 bd 2f 78 c6 bd
       -0.11134834 0.05483071 -0.036890935 -0.09690892
000280 d6 2b 85 3d d1 78 58 bd 9d f6 87 3d 2a 3a c7 3c
       0.06502502 -0.052849595 0.066388346 0.024319727
000290 d4 44 7c 3d e7 fe e9 bd fb 64 92 bd 18 d7 e9 bd
       0.061589077 -0.11425572 -0.07148167 -0.11417979
0002a0 2c 94 a0 bd ac 31 5e bd 9d 80 0d 3d be 99 be 3c
       -0.078407615 -0.05424659 0.034546483 0.02326667
0002b0 c2 fe f0 3d f9 20 90 3d fa 66 d9 3d 50 41 f0 3d
       0.11767341 0.07037539 0.10615344 0.11731207
0002c0 d6 e9 c0 bd 6e ee f8 3d 17 03 dd 3d f5 ea eb 3d
       -0.09419601 0.12154852 0.10791605 0.11519424
0002d0 12 14 2d bd 7f 51 93 bd ff fe 97 3d 46 18 ca bd
       -0.04225547 -0.071932785 0.074216835 -0.09867911
0002e0 c7 c0 d5 bb 3d 50 f1 bb 46 7c ea bd 5d 76 ba 3d
       -0.006523225 -0.0073643015 -0.114494845 0.09104607
0002f0 26 97 34 3d aa fa 2f bd d1 e9 9d bd d8 43 b8 3c
       0.04408946 -0.04296366 -0.077106126 0.022493288
000300 01 4a a4 bd f9 e8 fc 3d bc bd a5 3c b3 30 c3 bd
       -0.080219276 0.123491235 0.020232074 -0.09530773
000310 e3 f7 c4 3d 36 08 69 3d 48 29 b8 3d 57 d9 4c bc
       0.09617593 0.056892596 0.08992249 -0.01250299
000320 61 79 8e bd b1 f9 f0 bc cd 91 c9 bd ba 7d 2b bd
       -0.06956745 -0.029415937 -0.098422624 -0.04186795
000330 b9 ac 9d bd a1 08 c2 3d d6 3a a3 3b 86 17 7f bd
       -0.0769896 0.09474302 0.004981379 -0.062278293
000340 e4 a8 36 bc c8 6d 57 3d 09 29 e1 3c bf 49 b9 3d
       -0.011148665 0.05259493 0.027485387 0.09047269
000350 9f 8d 1c 3d ca 3c ab bd 04 3e 04 bc 6b df ac bb
       0.038220998 -0.08361204 -0.008071426 -0.005275657
000360 33 7e a4 bd 11 a6 89 bd 28 4e 91 3c 32 cf fc bd
       -0.08031883 -0.06721128 0.017737463 -0.12344207
000370 49 fe eb bd 7d c2 e7 bd 4d 86 be bb bb 57 f7 bd
       -0.115231104 -0.113163926 -0.0058143497 -0.1207728
000380 25 30 84 bd 4b 95 fc bd c4 b8 91 3d 54 94 9a 3d
       -0.06454495 -0.12333163 0.07115319 0.075478226
000390 21 c0 55 bc 0a 2c a3 bc 99 4f 65 bd 94 72 f0 3d
       -0.013046295 -0.01991846 -0.055984113 0.11740604
0003a0 89 cd bc 3c 40 97 ce bc b6 d3 9f bd 61 1f 05 bd
       0.023047226 -0.025218606 -0.078040525 -0.03250063
0003b0 b6 e0 12 bd e6 28 49 3d a0 01 d1 bd 91 3b 07 bd
       -0.035858832 0.04911127 -0.10205388 -0.03301579
0003c0 74 da e6 bd 14 9e d0 bd f7 d3 43 bd 63 39 ca bd
       -0.112721354 -0.10186401 -0.047809567 -0.09874227
0003d0 99 96 b0 3d a1 09 93 bd a9 c2 96 bd 0a c6 b9 bd
       0.08622474 -0.07179571 -0.07361347 -0.09070976
0003e0 29 ac 96 bd 07 8e 87 3c 07 bb fe 3d 81 60 e8 3d
       -0.07357056 0.016547216 0.124380164 0.11346532
0003f0 5e 81 31 bd 12 66 6f bc d3 ee a1 bd 3c 03 ad bd
       -0.043336265 -0.014611738 -0.0790688 -0.084478825

InConv.bias f4 [16]
000000 86 a8 65 bd 3c 95 34 3e f9 50 83 3d 35 81 25 3d
       -0.05606892 0.17635053 0.06411929 0.040406425
000010 bb 73 36 3e 32 fd f0 3d 2b 0a 0a 3d 46 59 71 bb
       0.17817585 0.11767043 0.033701103 -0.0036826893
000020 07 74 dc bd 2c 16 e3 bd f0 b5 3b 3e 08 9a f5 3d
       -0.10764318 -0.11088213 0.18331122 0.1199227
000030 c3 5c 05 3e b8 b6 ef 3d 25 3d b0 3d 42 88 45 bd
       0.13023667 0.11704773 0.086054124 -0.04822565

InConv.weight f4 [16, 3, 3, 3]
000000 bf 11 3d 3e b0 4d f2 bd 67 8f c8 3d ec 91 c7 3d
       0.18463801 -0.11831224 0.09792977 0.09744629
000010 d3 36 c5 bd 86 90 fc bd d4 bb 0b bd 8f 46 86 3d
       -0.096295975 -0.12332253 -0.034114674 0.06556427
000020 cd a5 30 3e e5 57 29 be 1e 5a 24 3d 85 90 86 bd
       0.17250748 -0.16537435 0.040125005 -0.06570534
000030 c3 9b d8 bc 0c 16 02 be b9 94 13 be 88 52 be bd
       -0.02644146 -0.12703723 -0.14412202 -0.09293085
000040 e0 59 01 3e 53 a2 15 be a3 d8 ab 3d 4d 31 6e 3d
       0.12631941 -0.14612703 0.083909295 0.058152486
000050 c9 6e fc bd 39 71 04 be 0e 7c 00 be 97 60 b7 bd
       -0.12325818 -0.12933816 -0.12547323 -0.0895397
000060 95 1a 79 bd 2d d6 9f 3d db a1 ca bd 53 d5 c6 bd
       -0.060816366 0.07804523 -0.09894153 -0.09708657
000070 55 08 70 bd 52 cf f9 bd 6d 8a 56 3c 17 72 f0 bd
       -0.058601696 -0.12197746 0.013094527 -0.11740511
000080 43 11 e5 bd 56 c6 14 3e e0 10 c3 3d 04 b5 f8 3d
       -0.11184933 0.14528784 0.09524703 0.12143901
000090 0e e7 2c 3d 15 48 f2 bd 17 42 16 3b be 95 02 be
       0.04221254 -0.11830155 0.0022927576 -0.12752435
0000a0 0f c7 ee 3d 38 1e 6a 3d af 10 03 be aa 17 25 be
       0.11659061 0.057157725 -0.12799333 -0.16122308
0000b0 82 6c 10 bc 07 88 f8 bc 50 72 d7 bd c0 74 94 3d
       -0.008814933 -0.0303383 -0.1051985 0.07248831
0000c0 de 1e 69 bd cd 71 87 3b ec 38 41 be ec 78 1a be
       -0.056914203 0.004133439 -0.1886937 -0.1508519
0000d0 96 0c 07 3e 92 af 1b be d2 5a 1a bd 4c 15 a2 3d
       0.13188395 -0.15203694 -0.03768427 0.07914218
0000e0 51 ac 3d be ac c8 73 bd 12 f6 a9 3d eb 60 1a 3e
       -0.18522765 -0.059517547 0.08298887 0.15076034
0000f0 df da 3d be e3 5d e4 bd c3 d3 3e be 3f c1 0d be
       -0.18540524 -0.1115072 -0.18635468 -0.13843249
000100 d2 c3 b4 bd 28 59 39 3e d5 ce 10 3e 68 a5 1e 3e
       -0.08826412 0.18100417 0.141414 0.15492785
000110 c2 0a 40 be c8 ae f0 bd 85 e5 e6 bd da c4 8d bd
       -0.18754104 -0.11752087 -0.11274246 -0.06922312
000120 43 7c bb 3d 3c ac f4 3c f1 7b b3 3a eb a4 ab 3c
       0.091545604 0.029867284 0.0013693554 0.020952662
000130 33 93 97 3d e8 7f fa 3d e5 84 e5 bd 8f d6 3a be
       0.07401123 0.122314274 -0.11206988 -0.1824591
000140 e4 f2 47 bd 15 3a 13 3e 29 d6 b7 3c fa ce 32 3e
       -0.048815623 0.14377625 0.022440987 0.17461768
000150 25 4c 14 3d f9 3c 0d be 6e e0 b4 bd 1a 0f 37 be
       0.03620543 -0.1379279 -0.08831869 -0.17876855
000160 a5 43 ba bd cb ce b7 3d bb 6b 1e bd 7c 81 b5 bd
       -0.090949334 0.089749895 -0.03867696 -0.08862588
000170 d8 38 a3 bd a7 bc 8d bd aa 1e 8b 3d 73 e7 27 3e
       -0.079698265 -0.06920748 0.06792958 0.16396885
000180 5f a1 14 bc 09 ff 22 3e aa 5f 61 bd f3 f2 66 3d
       -0.009071677 0.159176 -0.055022873 0.05638404
000190 f8 bc 1b 3e 9a 47 4d bb 09 01 78 3d a6 b1 0d 3e
       0.15208805 -0.0031323195 0.060547862 0.13837299
0001a0 de 9f 27 bd 16 58 b7 bd cd a8 f4 bc 2c 7f de bd
       -0.040923946 -0.08952348 -0.029865647 -0.108641
0001b0 e4 e1 64 bd 15 ab 31 3e 7a 68 e4 bc 25 88 4d bd
       -0.05587949 0.17350419 -0.02788185 -0.050178666
0001c0 62 bb 2a 3e ec 60 aa bc f1 b4 78 3d 58 1e a5 bd
       0.16673043 -0.02079817 0.060719434 -0.08062428
0001d0 99 67 23 3d ba e4 84 bd 40 cf 23 be d5 59 b7 bd
       0.03989372 -0.06488939 -0.15997028 -0.08952681
0001e0 28 0d bb bd 00 4e 95 bd cf 2f 60 3d da 99 e3 3d
       -0.09133369 -0.07290268 0.054733094 0.11113329
0001f0 6a d7 a9 bd f1 9a 89 3d ce 9a 19 3e c8 96 37 bc
       -0.0829304 0.06719006 0.1500046 -0.011205383
000200 93 83 ba bd ee b8 54 bc 56 e8 78 bd cc 15 51 bd
       -0.09107127 -0.012983544 -0.060768448 -0.051046178
000210 ed 8a 14 3e 5f 36 36 be 5b fb 44 bb 25 90 e7 3d
       0.14506121 -0.17794178 -0.0030057046 0.1130679
000220 88 01 08 bd 28 f2 aa bc 95 e9 9a 3d 10 80 5b 3d
       -0.033204585 -0.020867422 0.075640835 0.053588927
000230 42 a0 b2 bd df 9d 03 3d 84 80 01 3e bf 93 18 be
       -0.08721973 0.03213298 0.12646681 -0.1490011
000240 c9 49 db bd 45 7d c4 3d c9 e6 24 3e f6 a6 d3 3d
       -0.10707433 0.09594206 0.16103663 0.1033458
000250 77 a5 55 3d f0 79 04 3e 3d a1 0b 3e a4 2f 09 be
       0.052159753 0.1293714 0.13635726 -0.1339708
000260 21 e0 1d 3e 8f a6 67 bd 85 53 92 bd ba 99 28 3e
       0.1541753 -0.056555327 -0.07144836 0.16464892
000270 30 49 1e be 2a d8 d9 bd 85 32 80 bd 28 8f 3d 3e
       -0.15457606 -0.10636933 -0.06259636 0.18511641
000280 b1 60 e3 3d 18 2a d3 3b ba 68 c4 bc c4 ef 87 bd
       0.11102427 0.006444227 -0.023975719 -0.066375285
000290 de 6c 8e bd 72 86 88 3d a8 9a b4 3d 2c 72 1e be
       -0.069543585 0.066662684 0.08818561 -0.1547324
0002a0 db 9f 85 3d 3b 28 04 3e 59 d5 eb 3d 90 16 39 be
       0.06524631 0.12905972 0.11515302 -0.18075013
0002b0 58 75 f4 3d cb ab a5 3d 48 ae 97 bd 6c 70 63 bd
       0.11936444 0.080894075 -0.074062884 -0.055527136
0002c0 8c 85 0d 3e a7 09 2a be b8 74 84 bd 4e a7 32 be
       0.13820475 -0.16605245 -0.06467575 -0.17446634
0002d0 39 72 91 bd 5b cb f2 bd a3 ca 08 3e 1f d6 35 3e
       -0.07101864 -0.11855193 0.1335855 0.17757462
0002e0 ac 3c 16 3e 07 7e e1 3d 7f 8f e0 3d ab 91 c2 3d
       0.14671582 0.11010366 0.1096487 0.0950044
0002f0 9a f5 b8 bd 0d b8 68 3d 5c 70 24 3d 78 dd ba 3c
       -0.0903122 0.05681615 0.040146217 0.022810683
000300 f5 77 81 bd ad 19 38 be a4 cf 1f 3e ec ec fe 3c
       -0.06321708 -0.17978545 0.15606552 0.031118833
000310 cb ae 16 3e e5 93 3a bd 36 eb 2d be 9e 97 1a bd
       0.14715116 -0.0455512 -0.16984257 -0.03774225
000320 8e 29 61 3c dc 93 f3 bd c5 20 59 3d 4e b5 b6 3c
       0.013742818 -0.11893436 0.053009767 0.02230325
000330 ec dd 29 3e f9 be 91 bd aa 3d 7d bd 48 15 19 be
       0.16588563 -0.07116503 -0.061826386 -0.14949524
000340 60 78 ae 3d 05 18 57 3c 03 5c 20 be 2e 63 92 3d
       0.085190535 0.013128285 -0.156601 0.07147823
000350 73 ff ff 3d d0 19 7a bb 3f 24 df 3d a4 82 13 be
       0.12499895 -0.0038162358 0.10895585 -0.14405304
000360 2e e7 11 be 7e d0 08 be a7 d7 04 bd ae 2a ce 3c
       -0.14248344 -0.13360783 -0.032432225 0.025166836
000370 46 1c e1 3d 20 a5 8d 3d a7 23 bf 3d 46 79 1b be
       0.10991721 0.06916261 0.09332972 -0.15182981
000380 99 ce d6 bd 89 f0 be bc 44 22 09 3e 4a 60 3a 3e
       -0.10488624 -0.023308055 0.13391978 0.18200794
000390 27 08 1f be 8a 56 9f 3d 88 ed 1b 3e 53 93 4d bd
       -0.15530454 0.07780178 0.1522733 -0.050189327
0003a0 86 0b ec 3d 04 61 30 be 7d a8 93 bd 87 0a d3 3d
       0.115256354 -0.17224509 -0.07209871 0.10304742
0003b0 0e 71 a3 bd ab be f5 bd 74 cd 2c 3e 6d 3c e6 bd
       -0.07980548 -0.11999258 0.16875249 -0.11241994
0003c0 4a af 29 bd 19 e4 1c 3e 24 61 b1 bd 91 c4 65 bd
       -0.041426934 0.15321387 -0.08661106 -0.056095663
0003d0 03 7d 0b bd 85 9d 76 3d c3 e5 c5 bd cb 92 16 be
       -0.034054767 0.060208816 -0.09662964 -0.14704435
0003e0 2e a8 fc 3d f6 ee 23 be 7d f4 91 bd d5 7d 11 bc
       0.12336765 -0.16009125 -0.071267106 -0.008880098
0003f0 73 9f 67 3d 92 6a 43 be e7 85 f0 3c 26 83 e8 bd
       0.056548547 -0.19083622 0.029360725 -0.113531396

ResPart.stack0_0.Block.0.bias f4 [16]
000000 b8 01 19 36 a2 27 55 b6 7d 20 4c 36 22 2f 9f 36
       2.2799777e-06 -3.1762543e-06 3.041728e-06 4.7440562e-06
000010 e0 6a 5b 37 6a 66 b3 34 99 8b ae b7 d3 19 68 b6
       1.3078301e-05 3.3415864e-07 -2.0807422e-05 -3.4585726e-06
000020 06 47 ab 36 9b 4d 5a 37 45 fc e9 b4 8b 2f 29 37
       5.1044653e-06 1.30118815e-05 -4.3583182e-07 1.0084254e-05
000030 2f 36 e6 37 ae f9 38 36 87 28 39 34 57 d4 7b b6
       2.7443368e-05 2.756347e-06 1.7244211e-07 -3.7525513e-06

ResPart.stack0_0.Block.0.running_mean f4 [16]
000000 a6 6f ef 3c 78 bb 66 3d 03 cf 84 bc 0d 12 81 bb
       0.029228043 0.056331128 -0.016211992 -0.0039389194
000010 71 74 5f 3d ce 89 00 3d 4f 46 98 bc a0 33 3f 3c
       0.054554407 0.03138142 -0.018588213 0.011670023
000020 35 ee 02 bd 17 67 86 bd d8 1d 5c 3c ba 0e e8 bb
       -0.031965453 -0.065626316 0.01343485 -0.0070818337
000030 10 3c df 3d f1 0a 85 3c af b6 e7 bc 67 cb ac bb
       0.10900128 0.016240569 -0.028285353 -0.005273271

ResPart.stack0_0.Block.0.running_var f4 [16]
000000 f1 11 57 3f 9e a9 58 3f 55 90 56 3f ef d0 50 3f
       0.8401175 0.84633815 0.83813983 0.8156881
000010 66 0e 51 3f ac 2f 55 3f dc f5 50 3f f7 fe 50 3f
       0.81662595 0.83275867 0.8162515 0.81639045
000020 13 e5 50 3f 28 6b 51 3f c6 02 50 3f eb b2 58 3f
       0.8159954 0.8180413 0.8125423 0.8464801
000030 c1 89 58 3f 08 01 50 3f 55 4f 57 3f bc dd 54 3f
       0.84585196 0.81251574 0.84105426 0.8315084

ResPart.stack0_0.Block.0.weight f4 [16]
000000 44 00 80 3f 4d 00 80 3f 9d 00 80 3f 06 00 80 3f
       1.0000081 1.0000092 1.0000187 1.0000007
000010 bb 00 80 3f b5 fe 7f 3f 17 fd 7f 3f 77 00 80 3f
       1.0000223 0.9999803 0.9999556 1.0000142
000020 09 ff 7f 3f 98 00 80 3f c5 ff 7f 3f 82 00 80 3f
       0.9999853 1.0000181 0.9999965 1.0000155
000030 83 00 80 3f 93 fd 7f 3f 48 00 80 3f 3f ff 7f 3f
       1.0000156 0.999963 1.0000086 0.9999885

ResPart.stack0_0.Block.2.bias f4 [16]
000000 c8 73 79 be 30 3c 8c 3c a6 cb 02 be c0 46 ce bd
       -0.24360573 0.017118543 -0.12772998 -0.10072088
000010 1e 11 68 be 70 b4 26 3e b8 10 f1 3d 8c f5 a8 3d
       -0.2266278 0.16279769 0.11770767 0.08249959
000020 40 f5 91 bc e0 3a 2a be 12 17 31 be 48 10 ed bd
       -0.01781714 -0.16624022 -0.17293957 -0.11575371
000030 60 d9 1f 3e 8e 99 2f be 5c ae 09 be f0 d9 96 3d
       0.15610266 -0.1714842 -0.13445419 0.07365787

ResPart.stack0_0.Block.2.weight f4 [16, 16, 1, 1]
000000 80 de 36 3e a0 2b 29 be 04 f5 32 3e 83 5d 1f 3d
       0.17858315 -0.16520548 0.17476279 0.03890754
000010 2d 50 a2 bc 35 3f 21 3e 8c ed 0f be 43 58 48 3e
       -0.019813621 0.15746768 -0.1405546 0.19564919
000020 69 2c f7 bb b6 44 5d 3d 97 f2 98 bd e0 9a 7d 3e
       -0.007543136 0.054020606 -0.07468145 0.24766111
000030 25 3b 65 3b 3e e5 2c be 5a 82 1c be ab e7 dc 3d
       0.003497788 -0.16884324 -0.152841 0.10786375
000040 d9 33 49 bd 03 96 07 3e 0a 7d ca 3d 21 fe 80 bc
       -0.04912171 0.13240819 0.098871306 -0.015746178
000050 06 f5 44 be d3 26 10 3c 5a 17 77 bd 23 5a b4 bd
       -0.19234094 0.008798319 -0.060325004 -0.08806255
000060 91 de ce bd a8 a4 a5 bd cf 12 5e bb ab b4 06 3e
       -0.10101045 -0.08088046 -0.0033885723 0.13154857
000070 91 d4 2f be 71 b1 33 bd 1e f1 bf bc 0f 4d 05 be
       -0.17170931 -0.043870393 -0.023430403 -0.13017677
000080 f2 ee 5f be b3 2c 3e 3e 33 9d 78 be bb 04 84 3d
       -0.21868494 0.18571739 -0.24278717 0.06446215
000090 86 e7 ff bd b3 78 5c be 9f ea c5 3c f4 bc b3 bd
       -0.124953315 -0.21530418 0.024159728 -0.08776274
0000a0 33 8c 1d 3d 0d 67 5e 3e e2 8a 31 be 01 5c da bd
       0.038463783 0.21718998 -0.17338136 -0.106620796
0000b0 52 0c 6d 3e e4 86 cf 3d ef fc 20 3e 5f f6 da bd
       0.23149231 0.1013315 0.15721487 -0.10691523
0000c0 fb 87 0d 3e eb dd aa bd 6b 56 94 bd 93 72 22 bd
       0.13821404 -0.08343109 -0.072430454 -0.039660048
0000d0 b5 47 61 be fe 0a 9a bd ea ba fb 3d b7 12 59 3d
       -0.2200001 -0.07521628 0.122915104 0.052996363
0000e0 3a 25 d8 3d 05 d1 37 be 93 6c 56 be ab 7e 88 bd
       0.105539754 -0.17950828 -0.20939855 -0.06664785
0000f0 86 7e 78 3e 23 c5 34 3e 2b d9 ef 3b 36 ff f3 bd
       0.24267015 0.17653327 0.0073195896 -0.11913912
000100 72 1b 0d 3e 2d d0 e9 3d 99 84 4c be 2a 7f cb 3d
       0.13780001 0.114166595 -0.19972457 0.09936364
000110 24 ce 32 be ec 4e 3d be 45 34 44 3e db a4 60 be
       -0.17461449 -0.18487138 0.19160564 -0.21937887
000120 23 d0 f7 3b ee f2 39 3e 1d 08 1a 3e 69 4c a2 3d
       0.0075626536 0.18159077 0.15042157 0.0792473
000130 af 41 17 3e 00 de 2b be 43 44 4c 3e ec 7b df bc
       0.1477115 -0.16783905 0.19947915 -0.02728077
000140 c5 1a 1b 3c 97 cc 3e 3e 6a a3 b7 bd 70 13 44 be
       0.009466832 0.18632732 -0.08966716 -0.1914804
000150 fc 40 21 bd f7 df 7a 3e 81 62 4b be ef 5c 16 bd
       -0.039368615 0.24499498 -0.19861795 -0.036709722
000160 c4 ac f7 3d 49 75 94 bc 51 25 e9 3d d7 e9 67 3e
       0.12093499 -0.018122332 0.11384071 0.22647797
000170 20 d2 ce 3c 91 c3 41 3b de 89 a0 bd b5 32 24 3e
       0.02524668 0.002956603 -0.07838796 0.16034968
000180 e1 8b aa 3c cb b9 c4 bd c8 dd ef 3d 78 21 43 bd
       0.020818653 -0.0960575 0.11712223 -0.04763934
000190 55 42 63 bc 75 24 d6 3d e6 6a f7 3d 9f 05 3f be
       -0.013870795 0.104561724 0.12080936 -0.18654488
0001a0 2f b7 66 3e 1e 7a 0d be 33 1b 26 3d ba 9b 61 be
       0.22530816 -0.13816115 0.040553283 -0.22032061
0001b0 5f 1f 01 be f7 5d b2 3d 43 9a 4c 3d 23 db 79 be
       -0.12609623 0.087093286 0.049951803 -0.244
0001c0 2a 2c 75 be 16 bd 9b bc 9d 75 34 3e 6e a8 ea 3d
       -0.23942629 -0.019011062 0.17622991 0.11457907
0001d0 8d 6b 72 3e 30 6f 9a bd 21 94 cd 3d 7a 61 48 bd
       0.2367384 -0.075407386 0.10038019 -0.048921086
0001e0 55 7b dc 3c 3d 3f 67 bc 8a af f7 bc b0 4d cf 3d
       0.026914278 -0.014114198 -0.03023507 0.101222396
0001f0 ba f8 f1 bd ee 44 7b 3e f9 44 fa 3c 9b e3 05 3e
       -0.11815019 0.24538013 0.030550467 0.13075106
000200 97 19 1f 3d ef 62 68 be 58 3e 04 3e 82 4f f7 3d
       0.038842764 -0.2269399 0.12914407 0.12075712
000210 e4 73 61 3e d8 5b 85 bd cc f1 42 be 7f 14 8c bd
       0.22016865 -0.065116584 -0.1903755 -0.06839847
000220 ad ff 2a bd 52 db 07 be 02 a1 8a 3d 29 d8 c5 3d
       -0.041747738 -0.13267258 0.06768991 0.0966037
000230 36 4f 24 bc e6 cc 14 bb 7c 4e b6 bd 90 ce 25 3e
       -0.010028651 -0.0022705137 -0.089016885 0.16192079
000240 df cd 00 3e 9a f0 ed bd 0c bf 70 3e 26 ae 38 3c
       0.12578534 -0.11618157 0.23510379 0.011271989
000250 fb f5 1f be a6 62 63 3e c9 f2 c7 bd 47 e4 13 3e
       -0.15621178 0.222056 -0.097631045 0.1444255
000260 64 f1 bb bc 88 ce fa bd dd 17 3d bd e9 96 25 bd
       -0.022942252 -0.12246424 -0.046165336 -0.040427122
000270 04 6c 5b be 4d e5 d7 3d f3 91 37 3e dd 51 0b 3e
       -0.21427923 0.105417825 0.17926769 0.13605447
000280 fe 8b da bc be 00 62 be c4 b6 43 3e be a1 ea bd
       -0.026678082 -0.22070596 0.19112688 -0.11456631
000290 9a 6a 68 be a2 38 28 3e 1f 02 2a 3e b2 16 4e 3e
       -0.22696915 0.16427854 0.16602372 0.20125845
0002a0 e0 b3 31 be bb 3b c3 bc 71 a1 63 be f3 5f 6d be
       -0.17353773 -0.023832193 -0.22229554 -0.23181133
0002b0 30 cd 23 bd 4e 5a 17 bd 09 72 01 3e cd 7b 28 3e
       -0.039990604 -0.036951356 0.12641157 0.16453476
0002c0 ea e0 e5 bd f8 66 3a 3e 3c 09 9e bd e7 56 12 3d
       -0.112245396 0.18203342 -0.07716605 0.035727408
0002d0 b3 bc 46 be d9 e7 7e be c6 be bc 3c 0f f8 ac 3d
       -0.1940792 -0.2489313 0.023040187 0.08445751
0002e0 79 7a 06 be 87 34 e3 3d 52 3f 67 be 7e 74 6c be
       -0.13132657 0.11094003 -0.22582749 -0.23091313
0002f0 5e 62 30 bd e7 78 95 bd d2 13 28 be df ff 6f be
       -0.04306256 -0.07298451 -0.16413811 -0.23437451
000300 40 3f 7d 3e 72 fd d1 3a 22 42 26 3e 82 50 df bd
       0.24731159 0.0016020967 0.16236165 -0.109040275
000310 b4 56 0e be 6c 01 3e be 70 e7 82 3c f1 c8 52 be
       -0.13900262 -0.1855523 0.015979499 -0.20584466
000320 1f a7 a9 3d 80 54 b0 3d 8d 1f 6f bd 99 ad 3e 3e
       0.08283829 0.08609867 -0.0583797 0.1862091
000330 e3 26 c8 bd 30 9e 00 3e e5 12 70 3d a9 4f 30 be
       -0.09773042 0.12560344 0.05861177 -0.17217888
000340 f3 c3 53 be 28 e6 32 3e 78 4f fa bd 20 63 e7 3d
       -0.20680217 0.1747061 -0.12222189 0.112982035
000350 e6 b7 7a 3e 94 09 6b be 74 28 71 3e b4 19 5a be
       0.24484214 -0.22952873 0.23550588 -0.21298867
000360 cb e3 8e 3d d8 ce 57 bd d8 36 3e 3d 70 71 30 3e
       0.06977042 -0.052687496 0.04643902 0.17230773
000370 45 fd ec 3d 83 b6 51 be 7d 53 62 3e 71 6c f4 bd
       0.11571745 -0.20479779 0.22102161 -0.11934746
000380 8e 0d 87 3c ff 42 fe 3c 26 f8 7e be d3 08 0f 3c
       0.016485956 0.031037806 -0.24899349 0.008730131
000390 1f 87 a0 3d 88 ee 06 bd ce 18 ec bd 6e 59 33 3e
       0.07838272 -0.032942325 -0.115281686 0.17514583
0003a0 a0 d6 8c bc 8a 67 b1 3d 17 ed 1e 3e 79 6d 8e bb
       -0.017192185 0.08662327 0.1552013 -0.0043465463
0003b0 53 12 5b bd 78 4c 44 3e b3 c6 11 3d ee b5 08 be
       -0.053484272 0.19169796 0.035589885 -0.1335065
0003c0 c2 ce 02 3e da fd 2b 3d b9 12 e0 bd f0 34 69 be
       0.12774184 0.04199014 -0.10941071 -0.227741
0003d0 c0 09 9f bd ac 44 89 bd a1 f9 41 be f4 08 7b be
       -0.077655315 -0.06702551 -0.18942882 -0.24515134
0003e0 17 ae 35 be 80 5a c7 bd 14 72 33 3e b9 d1 09 be
       -0.17742191 -0.097340584 0.17523986 -0.13458909
0003f0 c7 dc fc 3d 3d 9f 2f be c8 f3 b4 3d 82 e0 bc bc
       0.123467974 -0.17150588 0.0883556 -0.023056272

ResPart.stack0_0.Block.3.bias f4 [16]
000000 c8 82 1a 37 78 88 cd b5 c0 eb ee 36 ac a8 60 37
       9.209565e-06 -1.5313408e-06 7.1203976e-06 1.3390712e-05
000010 e6 89 87 36 a0 34 6f 37 7e b5 de b5 70 b6 89 b7
       4.039367e-06 1.4257763e-05 -1.659311e-06 -1.6416627e-05
000020 00 78 0a 37 2e 0c 67 b7 35 30 4d b6 54 7b 21 b7
       8.253381e-06 -1.3771509e-05 -3.057544e-06 -9.625062e-06
000030 e9 5a 25 37 ae df 8d 37 41 5c 75 36 bd a7 8c 37
       9.855933e-06 1.6912669e-05 3.6561544e-06 1.676741e-05

ResPart.stack0_0.Block.3.running_mean f4 [16]
000000 65 85 06 bd 96 99 84 bc 5a b6 06 bd 60 14 d4 bc
       -0.03284206 -0.016186517 -0.032888748 -0.025888622
000010 1c fc 03 bd 76 86 39 3d b9 fb 57 3c da ad 11 3d
       -0.032222852 0.045294248 0.013182574 0.03556619
000020 75 28 5b bb 6e 2f a6 bc 5f c7 2d bd 24 ee 84 bd
       -0.0033440862 -0.020286288 -0.042426463 -0.06490734
000030 e1 1a f0 3c 0b 87 c9 bc 1a 61 a3 bc 2f 1e 8a bc
       0.029309692 -0.024600526 -0.019943763 -0.016860096

ResPart.stack0_0.Block.3.running_var f4 [16]
000000 cc 4b 50 3f 40 3f 50 3f df 10 51 3f 52 b6 51 3f
       0.81365657 0.8134651 0.8166637 0.81918824
000010 30 27 51 3f 2f d8 50 3f f0 3b 51 3f 03 5d 52 3f
       0.8170042 0.8157987 0.8173208 0.82173175
000020 82 85 50 3f 89 01 52 3f 4b ce 52 3f dc c8 55 3f
       0.81453717 0.8203359 0.8234603 0.8350961
000030 1e 8f 50 3f e5 ee 50 3f 3c 62 50 3f 0b 63 56 3f
       0.8146838 0.81614524 0.81399894 0.8374488

ResPart.stack0_0.Block.3.weight f4 [16]
000000 37 00 80 3f 65 00 80 3f f9 fe 7f 3f 36 00 80 3f
       1.0000066 1.000012 0.9999843 1.0000064
000010 54 00 80 3f 8b ff 7f 3f 24 00 80 3f f1 fc 7f 3f
       1.00001 0.999993 1.0000043 0.9999533
000020 8a 00 80 3f 53 fd 7f 3f 5a 00 80 3f ea ff 7f 3f
       1.0000165 0.9999592 1.0000107 0.9999987
000030 83 00 80 3f a4 00 80 3f 77 ff 7f 3f 99 00 80 3f
       1.0000156 1.0000196 0.99999183 1.0000182

ResPart.stack0_0.Block.5.bias f4 [16]
000000 6c c6 d0 3c 12 2b 41 3d b0 68 b9 3b cd c2 86 3d
       0.02548524 0.047160216 0.0056582317 0.06580124
000010 7a ee 6b 3d 00 a2 55 bc a9 7e 9e 3d ae 36 a2 bd
       0.057600476 -0.013039112 0.07739002 -0.079205856
000020 b9 cd 81 3d f8 48 19 3c 2e 21 3e 3d a6 5d 8c bd
       0.063380666 0.009355776 0.04641836 -0.068537995
000030 6c 30 d4 bc fc 46 d4 bc cc f3 c5 bc 53 d6 3b bd
       -0.025901996 -0.025912754 -0.024164103 -0.045858692

ResPart.stack0_0.Block.5.weight f4 [16, 16, 3, 3]
000000 c2 f2 08 bd 6d d9 80 bd 92 82 61 3d a8 3f 0f bb
       -0.033434637 -0.06291471 0.055056162 -0.002185801
000010 d7 0a 20 3d 6a b1 43 3c 4e 56 0e 3d 59 88 a0 bd
       0.039072838 0.011944154 0.034750275 -0.07838506
000020 f2 1c db bb 04 fb e8 ba dc 34 a3 3c 0d 1d 21 3d
       -0.0066868 -0.0017775004 0.019922666 0.039334346
000030 d4 43 8c 3d 2c d5 3c bd 27 58 3c bd a1 0f 4b 3d
       0.06848875 -0.046101734 -0.045982506 0.04957545
000040 ec d9 62 bd 33 44 42 bd 55 1c 71 bd 84 4a 6f 3b
       -0.055383608 -0.04742832 -0.05886491 0.003651292
000050 22 c4 95 3d 36 b7 95 bd 5e 33 67 bd 47 18 6b 3d
       0.073128 -0.07310335 -0.056445472 0.0573962
000060 b1 0f 51 3d fa 1f 93 bd 6b 22 0e 3d 11 d9 82 bd
       0.051040355 -0.071838334 0.034700792 -0.063890584
000070 e0 5e 56 bd fe 34 c8 3c 26 20 17 3d 99 d2 a1 bd
       -0.052336574 0.024439331 0.036895894 -0.079014964
000080 c9 80 98 bd aa 5a a9 3d 7a ea c8 3c 4e 49 73 bd
       -0.07446439 0.08269246 0.02452587 -0.05939608
000090 b0 db a7 bd 41 8a 14 3d 2c 3d 5f 3d d4 10 25 3d
       -0.08196199 0.03626466 0.054501697 0.04029925
0000a0 d3 29 70 3d b4 bc 46 3d d0 fd 8a bd 5f e4 84 3d
       0.058633637 0.048519805 -0.06786692 0.06488871
0000b0 40 b8 3b 3d d7 9b 89 3d 3c 6a 89 3d 0d 60 a2 bc
       0.04583001 0.06719177 0.06709716 -0.019821191
0000c0 17 01 17 3c 5b 36 86 bd 2c 63 aa bd ee 1f 31 bc
       0.009216568 -0.06553336 -0.08319697 -0.010810835
0000d0 54 de 04 bb 4c 1d 55 3d 5a f1 37 3c fb 2e a7 3d
       -0.002027412 0.052029893 0.011226976 0.08163258
0000e0 9e 3a 61 3d 37 cb 87 bb 77 8e cc bb 6e 6f 72 3c
       0.054987542 -0.004144098 -0.006242569 0.014797075
0000f0 c3 20 e0 3c c7 e7 7c bd be f1 73 3d e3 3a 27 bd
       0.027359372 -0.061744478 0.059556715 -0.040827643
000100 55 0f 81 bd 4f 64 83 bd 5f a3 f4 3c bb fb d6 3c
       -0.063017525 -0.06415617 0.029863058 0.026243081
000110 91 32 69 3d e9 a2 c7 bc 34 3c 0b 3c b7 62 9f bb
       0.05693299 -0.024369674 0.00849824 -0.0048640626
000120 bd f1 a4 bc 2d d7 b3 3c d0 92 24 bb 49 de bf bb
       -0.020134801 0.02195319 -0.002511192 -0.005855356
000130 ad 5a 82 bc 23 62 11 bd 29 68 16 3d e4 06 b6 3b
       -0.015912378 -0.03549398 0.03672043 0.0055550206
000140 cb 53 ba bb fa 3b 5f bb 0a 8e ea 3c a5 6a d7 3c
       -0.0056862584 -0.0034062848 0.028632183 0.02629597
000150 a2 68 04 bd 75 20 9a 3d 9e 60 1f bd 11 93 49 3b
       -0.032326348 0.07525722 -0.0389105 0.0030757824
000160 fe c4 78 bd 40 a1 62 bd 2d e8 08 bc 80 23 b2 3c
       -0.06073474 -0.05532956 -0.008356136 0.021745443
000170 80 a4 6a 3b 75 a1 19 3c 13 04 69 bc 0a 88 83 3d
       0.0035803616 0.009376873 -0.014222163 0.06422432
000180 48 71 71 3d ad 06 04 3d f8 ee 72 bd 23 f0 51 bd
       0.058945924 0.03223293 -0.05930993 -0.051254403
000190 0a 05 33 3d 5d d5 9b bd 7b 42 aa 3d ff d5 7b 3d
       0.043705977 -0.07609055 0.083134614 0.06148338
0001a0 b5 80 54 3d 0d bf 45 3b 1d 87 0f bc 69 b8 26 bc
       0.051880557 0.003017369 -0.008760241 -0.010175803
0001b0 17 a3 4c bc 6f 13 5c 3d 01 e4 57 bd e8 89 a1 bd
       -0.0124900555 0.05372947 -0.052707676 -0.07887632
0001c0 13 65 7f 3c 92 59 5a bd 4f f7 6e bd 63 7c 64 3c
       0.015588063 -0.053308077 -0.05834132 0.013945672
0001d0 52 a8 be bc ad 0e e9 3c ea e1 ed bc de a5 23 bd
       -0.02327362 0.02844938 -0.029038388 -0.039953105
0001e0 8f ab 87 3d 72 07 68 bd a2 13 1e 3c 2f fc 9d 3d
       0.06624519 -0.056647725 0.0096482355 0.07714116
0001f0 9b 1f 9b bd 05 09 93 bd c6 fd 01 3d 10 49 06 bd
       -0.07574388 -0.07179455 0.031736158 -0.03278452
000200 94 3f 12 3d f6 14 44 3d 97 e0 5b 3d 2a 81 79 bb
       0.035705164 0.047871552 0.053680982 -0.0038071373
000210 08 c6 95 bd 75 22 44 bd 9d 34 01 bd 5a 56 86 bd
       -0.07313162 -0.047884423 -0.031544317 -0.06559439
000220 24 4f 72 bb 6c 44 b8 3b fb 63 97 3d ca 05 8f 3d
       -0.003697344 0.005623391 0.07392117 0.06983526
000230 2d b8 9d bd 45 5e 37 bc 79 82 77 3c c0 a0 75 3d
       -0.07701144 -0.011191909 0.015106791 0.059967756
000240 80 7f 66 bd 20 57 1d 3d 0c d6 f0 bc 44 9a 1f 3d
       -0.056273937 0.038413167 -0.02939894 0.03896548
000250 fe ab 6a bd 59 96 0e bb 6b 68 27 3d 70 b7 a3 bb
       -0.05729293 -0.0021757095 0.040871065 -0.0049962327
000260 e5 ca 90 3d 9f 12 5b bd 8a 08 22 bd fc a1 43 3d
       0.07069949 -0.053484555 -0.039558925 0.047761902
000270 ff 35 28 bd 4a db 2a 3c a4 70 2d 3c 95 4b 4f 3d
       -0.04106712 0.010428259 0.010585938 0.05060919
000280 e9 c9 8e bc 03 d9 2f 3b f3 fd 4c 3d 84 98 3e 3d
       -0.017430263 0.002683223 0.050046872 0.04653217
000290 e6 42 13 3d 34 4c 54 bd a3 f8 43 3d 00 c9 09 3d
       0.03595247 -0.051830485 0.04784454 0.033638954
0002a0 3c e7 87 bc 67 90 88 3d 54 d1 85 3d c4 71 60 bd
       -0.016589753 0.066681676 0.06534067 -0.054795995
0002b0 a5 db 78 bd 4d 4a 90 bc f0 26 1c bd ba 19 7f bd
       -0.060756344 -0.017613554 -0.03812307 -0.062280394
0002c0 c4 e9 11 bc 7b 83 82 bd ec f1 09 bd a4 46 2f bb
       -0.008905832 -0.06372734 -0.03367798 -0.0026744986
0002d0 af 45 2e bd bf e1 2b 3d 69 a8 14 3d 40 51 39 bd
       -0.042546924 0.041963335 0.03629342 -0.0452435
0002e0 8c 82 46 3d dd 5b 9b bd f2 32 8f 3d e2 41 a1 3d
       0.048464343 -0.07585881 0.06992139 0.07873894
0002f0 8d 07 93 3c 4f 03 76 bd b9 90 a8 bd d4 69 16 3d
       0.017947936 -0.06006175 -0.08230729 0.03672202
000300 71 1f c8 bc d6 01 85 bd 6d 3f c4 3c 11 79 ca bc
       -0.024429055 -0.06494491 0.023956025 -0.024715932
000310 40 84 a0 bd 51 74 76 bd 4f f0 2b 3d 24 37 96 3d
       -0.07837725 -0.06016952 0.041977223 0.07334736
000320 d8 a1 6f 3c 6c 95 f7 3c 30 d3 54 3d 91 86 56 bd
       0.014625989 0.030222617 0.051959217 -0.052374426
000330 ea 43 98 3d a0 7b d9 bc b9 8c f1 3c 26 c4 a9 3c
       0.074348286 -0.026548207 0.029486047 0.020723414
000340 d2 97 50 3d 27 f4 c4 3c 30 18 a6 bc e7 08 66 bc
       0.050926037 0.024042202 -0.020275205 -0.014040208
000350 1b 10 92 bd a4 d5 da 3c fd d2 29 bd 26 b8 9d bd
       -0.07131978 0.0267132 -0.04146098 -0.07701139
000360 c0 2a 8a bd 0f 49 07 bd c6 d9 86 3d 10 98 9d bd
       -0.06746435 -0.03302866 0.06584506 -0.07695019
000370 f9 aa c2 3c 37 b5 5b 3d d0 59 a9 3d aa bb a2 bd
       0.023763167 0.053639617 0.082690835 -0.0794595
000380 1c 8c 43 bc 6f 81 38 bb c6 26 a6 3d 7b b9 a5 bd
       -0.01193526 -0.002815332 0.08112864 -0.08092018
000390 d6 67 46 bd 63 6c ff 3c 7a 8c 96 bd 71 3c a1 bc
       -0.04843887 0.031179613 -0.073510125 -0.019682141
0003a0 0d dd a8 bd fe b0 dd bc ab 14 0c bd aa f4 8e 3c
       -0.08245287 -0.027061936 -0.034199398 0.01745065
0003b0 e6 0b bb 3c 40 5b f5 3c bc 01 a1 bc ff 98 ed 3c
       0.022832822 0.029950738 -0.019654147 0.029003618
0003c0 10 a3 bf 3b ed a2 a2 3d b4 d1 f9 bc cc 5b 8e bc
       0.005848296 0.07941232 -0.030495502 -0.017377757
0003d0 65 9e 56 3c a8 b8 a5 bd 87 fa 2a 3d 07 cd 3b bc
       0.013099288 -0.08091861 0.041742828 -0.011462457
0003e0 51 d1 2f 3d d6 38 9d bd ff 89 c9 3b b0 93 a6 bd
       0.04292423 -0.07676856 0.0061504836 -0.08133638
0003f0 2d cf 54 3d 81 84 54 ba 7d ae 99 bc af f1 98 3d
       0.05195539 -0.0008106903 -0.01875996 0.074679725

ResPart.stack0_0.Block.6.bias f4 [16]
000000 5c 87 b9 b8 46 08 8f 39 b3 7d cc b7 93 d9 97 b9
       -8.8467e-05 0.0002728125 -2.4377228e-05 -0.0002896307
000010 03 f4 0f 3a 01 f5 29 b9 6a d8 8b b9 43 e1 88 39
       0.00054913777 -0.00016208367 -0.00026673387 0.00026107774
000020 bd d7 29 ba cf 18 d5 39 9e 31 af b9 81 86 51 38
       -0.0006478986 0.0004064501 -0.0003341557 4.995475e-05
000030 d7 45 04 3a ee 5d b5 39 f5 ed cb 39 ea 13 36 b9
       0.00050458073 0.00034592993 0.0003889647 -0.00017364291

ResPart.stack0_0.Block.6.running_mean f4 [16]
000000 ec 8d db 3a 14 b6 b7 3b f2 67 a4 bc a2 ea a2 3b
       0.001675067 0.005606422 -0.020069096 0.004971818
000010 30 90 a8 3c c8 9e af 3c 1a 78 13 3b fc 2d b9 bc
       0.020576566 0.021438017 0.0022502006 -0.022604935
000020 88 53 7d bc be 67 47 3c 88 de ef 3b 55 d9 a7 bc
       -0.01546181 0.01217073 0.007320229 -0.020489374
000030 de be 8b bb 03 3a 6f bb 2b c1 c5 bc b8 51 b3 ba
       -0.0042646965 -0.0036503084 -0.024139961 -0.001368097

ResPart.stack0_0.Block.6.running_var f4 [16]
000000 af dd 50 3f fa 76 52 3f 2c 0d 52 3f 74 d7 51 3f
       0.8158826 0.82212794 0.8205135 0.8196938
000010 a0 b1 51 3f d6 c5 51 3f be 86 51 3f d3 82 52 3f
       0.8191166 0.819425 0.81846225 0.8223087
000020 0d 3b 56 3f 08 04 51 3f fd f0 53 3f eb 47 51 3f
       0.83683854 0.81646776 0.82789594 0.81750363
000030 db f2 50 3f d6 0d 51 3f f8 db 55 3f c1 40 51 3f
       0.8162057 0.81661737 0.8353877 0.8173943

ResPart.stack0_0.Block.6.weight f4 [16]
000000 0d fc 7f 3f a2 05 80 3f fd fe 7f 3f 01 f4 7f 3f
       0.99993974 1.0001719 0.99998456 0.99981695
000010 13 0c 80 3f 66 f8 7f 3f fe f1 7f 3f b7 06 80 3f
       1.0003685 0.999884 0.99978626 1.0002049
000020 dc e8 7f 3f 18 08 80 3f 59 f4 7f 3f 83 01 80 3f
       0.9996469 1.000247 0.9998222 1.0000461
000030 1a 0b 80 3f b7 07 80 3f f5 06 80 3f d6 f6 7f 3f
       1.0003388 1.0002354 1.0002123 0.99986017

ResPart.stack0_0.Block.8.bias f4 [64]
000000 d7 4b fb 3d 8a 29 5c 3e 52 5d 98 bd a6 f5 13 bd
       0.12270325 0.21500221 -0.074396744 -0.03612294
000010 62 6e 56 be 45 c4 ca bd bf e7 31 be 93 1d c5 3d
       -0.20940545 -0.09900717 -0.1737356 0.096247815
000020 48 4a b7 3d 5c f2 15 be 33 f9 5a be 2d 75 17 bd
       0.08949715 -0.14643234 -0.21384124 -0.036976982
000030 d6 ef 18 3d 96 13 c9 3d f7 28 4c be ce 85 7a 3e
       0.0373381 0.09818189 -0.19937502 0.24465105
000040 27 c8 0c be d2 43 4f be 91 5d 72 ba a5 11 5b be
       -0.13748227 -0.20240715 -0.000924551 -0.2139345
000050 8c 10 0c bc 86 57 f8 3c cd 8e 82 bd e3 f6 16 3e
       -0.008548867 0.030315172 -0.06374893 0.14742617
000060 23 2e ba 3d 8b bc 68 be e6 09 2f be e5 51 ce 3d
       0.09090831 -0.22728173 -0.1709362 0.10074214
000070 52 2f 04 3e 12 8e 47 3e 01 9f 54 3e 4f 3d c3 3d
       0.12908676 0.1948779 0.2076378 0.09533178
000080 42 f5 7a 3e 9b 3a 4a 3e 81 7a c9 bd 26 9b e7 3d
       0.24507621 0.19748919 -0.09837819 0.11308889
000090 6a b2 51 be 0f 14 5d bd e9 4b 3c be 3a d4 b5 3d
       -0.20478216 -0.053974207 -0.18388332 0.0887837
0000a0 fc 43 45 3e d7 f4 19 be a0 7d 06 3c 55 33 44 3e
       0.19264215 -0.15034805 0.008208662 0.19160207
0000b0 a0 10 35 be e1 f0 25 bd 4b 4e 4a 3e 37 2d 10 3e
       -0.17682123 -0.040512923 0.19756429 0.14079748
0000c0 55 ea 3a be 2e 05 15 be d9 02 13 be 73 eb 84 3d
       -0.18253453 -0.14552757 -0.14356555 0.06490221
0000d0 9e 9c 66 3e df 8e ab 3d 6f 96 19 be 3e dc 50 bc
       0.22520682 0.0837686 -0.14998792 -0.012747822
0000e0 1e a8 03 bb 6e 5d 7e be 32 c3 43 3e f9 78 47 be
       -0.002008922 -0.24840328 0.1911743 -0.19479741
0000f0 66 5c 7e 3e 16 70 ae bc 47 be 29 3e 24 57 8f bc
       0.24839935 -0.021293681 0.16576491 -0.017497607

ResPart.stack0_0.Block.8.weight f4 [64, 16, 1, 1]
000000 29 62 2e 3e 98 c0 0b 3e 11 bd df bd cc 39 c5 bd
       0.17029633 0.13647687 -0.109247334 -0.096301645
000010 91 98 3a 3e 92 e2 eb bd 9c d4 22 3d cd 5c e6 bd
       0.18222262 -0.11517824 0.03975354 -0.11248169
000020 07 29 6d 3e 7d b0 e6 bd 01 6b 49 3e a4 16 27 3e
       0.23160182 -0.11264131 0.19669725 0.1631723
000030 ad 2e 54 3e 29 63 f6 3c bb 41 e4 bd a6 89 6d be
       0.2072093 0.03007658 -0.111453496 -0.2319704
000040 ec 70 42 bd 39 14 12 bb 0c 9a 4c be f0 d7 4b be
       -0.047470972 -0.0022289886 -0.19980639 -0.19906592
000050 c5 3d 1b 3e c0 bc 81 bd e8 80 60 be b7 a5 c6 bd
       0.15160282 -0.06334829 -0.21924174 -0.09699576
000060 0e 3e 67 be 59 47 5a 3e 2b 97 27 3e 71 d1 43 3d
       -0.22582266 0.2131628 0.1636626 0.04780716
000070 f1 ee 99 3d a3 4c f9 bd 18 93 78 3e 71 e0 b3 3c
       0.075162776 -0.121728204 0.24274862 0.021957608
000080 08 24 a3 3d 80 38 4f be 61 0a 55 3d 0b 90 9c bc
       0.07965857 -0.20236397 0.05201185 -0.019111654
000090 52 52 6f 3e e7 c0 2d 3d 9a 38 d6 3d 18 5a 76 bd
       0.23371246 0.042420294 0.10460015 -0.060144514
0000a0 08 ab 9b bd 87 3f 62 3e 43 98 35 3d 97 e8 c1 bd
       -0.07600981 0.22094546 0.04433466 -0.09468191
0000b0 a8 b6 c4 3c d5 2d 7f be 8a 79 7a 3e 1e 54 48 3d
       0.024012879 -0.24919827 0.24460426 0.048908345
0000c0 cf ca a1 bd 86 c3 02 3e 6b fa 4e 3e e9 73 f9 3d
       -0.07900011 0.12769899 0.20212714 0.12180311
0000d0 b5 d1 54 bc cb fe ad 3d 15 e8 11 be 2c c9 43 3e
       -0.012989451 0.084958635 -0.14248689 0.1911971
0000e0 d2 c2 b1 3c d8 25 c5 3c 10 36 aa 3c 2a 58 7f be
       0.021699343 0.024065897 0.020777732 -0.24935976
0000f0 2a 83 1a 3e 30 ea c0 3d e3 74 a6 3c e4 73 5e 3c
       0.15089098 0.09419668 0.020319408 0.013577435
000100 2f a8 4b 3e 0d 05 8a bd 91 41 5b 3e 23 c5 3a 3d
       0.19888376 -0.067392446 0.2141173 0.04559816
000110 9c 05 6a be 9b 46 87 3d 2b 8f 16 3e 8a 0b e6 bd
       -0.22853702 0.06605264 0.14703052 -0.1123267
000120 ff db 9b 3c c9 c2 6f bd 2d 0c 63 3e 08 95 9e 3d
       0.0190258 -0.05853537 0.22172613 0.07743269
000130 65 c5 64 3e cc 2e 61 3e 3b e6 07 3e 0e 03 fd bc
       0.22340925 0.21990508 0.1327142 -0.030885246
000140 de af e7 bc 44 8f 2d 3e b5 56 4c be a3 df de 3c
       -0.028282102 0.16949183 -0.19954951 0.027206248
000150 1f 0a 4a be 18 f7 90 bd 52 48 40 be 30 43 9e 3d
       -0.19730423 -0.070783794 -0.18777588 0.07727659
000160 af 56 65 3e 30 3e 53 3e ab a5 31 be e1 ec 0d 3e
       0.22396348 0.20629191 -0.17348354 0.13859893
000170 18 c9 d5 3d 68 c3 e7 3d d3 1a 0c 3e a7 8d c1 bd
       0.10438746 0.11316568 0.13682108 -0.09450846
000180 c6 96 6a 3e 1e c4 9b bd 07 9a 22 be c3 8f c1 bd
       0.22909078 -0.07605766 -0.1587907 -0.094512485
000190 59 2e 92 3d e7 a6 de bd dc b7 42 be c3 1c cd bd
       0.07137746 -0.10871678 -0.1901545 -0.100152515
0001a0 eb 34 0e be 08 c5 d6 bd ad 2f 85 3a 39 a8 1d 3d
       -0.13887374 -0.104867995 0.0010161303 0.038490508
0001b0 bd 91 11 bd de 62 20 3e 66 e2 5f 3d fe ff d5 3d
       -0.035539377 0.15662715 0.05465927 0.10449217
0001c0 d6 3f 5e be 8e 7b 71 3e 20 60 51 be 2f 94 76 3e
       -0.21704039 0.23582289 -0.20446825 0.24079965
0001d0 d3 f6 d1 3d e3 f4 13 be 7e 18 27 3c f3 8d af bd
       0.10252156 -0.14448886 0.0101987105 -0.085719965
0001e0 1d 1a 84 bd ff 15 8f 3d b1 ee 1c 3e 25 18 4b bd
       -0.06450293 0.06986617 0.15325429 -0.049583573
0001f0 3d df 5b 3d 51 a0 45 3d 9b df 1a 3e 91 08 70 bd
       0.053679693 0.048248593 0.15124361 -0.05860192
000200 1d f0 74 3e c9 4d 17 be 21 92 07 3e 16 b7 1b be
       0.23919721 -0.14775766 0.13239338 -0.1520656
000210 f3 b0 ce bd 8f 79 ae 3c 16 d0 3d 3d 5a 00 3a 3e
       -0.10092344 0.021298198 0.046341024 0.18164197
000220 20 f8 59 be d4 90 fd 3d db 3f ab bc 70 af 06 3e
       -0.21286058 0.123811394 -0.020904472 0.13152862
000230 f8 2e dc bd f3 a4 54 be 2d ea 78 bd c7 85 6a be
       -0.10751146 -0.20766048 -0.060770202 -0.22902595
000240 b7 e8 f8 3d fa e4 68 3e 8f 3a 1e 3d 71 f4 02 bd
       0.12153762 0.22743598 0.038630065 -0.0319714
000250 5d 52 a6 3d ff e3 2a 3e 74 3a 57 3d bc 29 af bd
       0.08121178 0.16688536 0.05254598 -0.08552882
000260 2e 5e e8 bd c9 d4 67 3e 3e 3b 4e 3e a4 22 51 3e
       -0.11346088 0.22639765 0.20139787 0.2042337
000270 34 e5 f1 bd 46 9c 32 3e 65 7b fd bd 5d 98 b1 3d
       -0.11811295 0.17442426 -0.12377051 0.08671639
000280 1f 68 39 be 1a fc eb 3c 21 ac 0b bd a9 2e 50 be
       -0.18106125 0.028806735 -0.0340997 -0.203303
000290 52 f0 5b 3e e8 a0 76 be 47 1b da 3d 6e ea 78 3e
       0.21478394 -0.24084818 0.10649734 0.24308178
0002a0 ca cc 26 be 20 46 0e be e8 f7 ee bd 73 5f a4 3d
       -0.16289058 -0.13893938 -0.11668378 0.08026018
0002b0 31 d3 eb bd 10 a8 cb bc 28 46 34 be ea 11 6a 3e
       -0.11514891 -0.024860412 -0.17604887 0.22858396
0002c0 62 a2 f2 bd 8e 54 b5 bd 5d 71 94 bd e2 77 19 be
       -0.11847378 -0.08854018 -0.07248185 -0.14987138
0002d0 87 51 07 3e 5c 15 28 3d 34 b7 42 bd a2 2b 48 bd
       0.13214694 0.041035995 -0.047537997 -0.048869736
0002e0 7b e5 8f 3d 56 ca 67 3e b3 63 6c be bd 9f 89 3c
       0.07026192 0.22635779 -0.23084907 0.016799802
0002f0 6f 16 2a 3e ed 20 3c bd 82 75 0b be 5b 60 30 bd
       0.1661012 -0.045929838 -0.13619044 -0.04306064
000300 01 10 9d 3d d2 4f ba bd ec 74 1c 3d 4c 84 05 be
       0.07669068 -0.09097256 0.038197443 -0.13038749
000310 45 a8 61 3e c8 35 3e be c7 68 0d 3e c8 ee 19 3e
       0.22036846 -0.18575203 0.138095 0.15032494
000320 c5 d3 6c 3e d6 0b 68 3e 79 a2 64 be a1 6e d2 bd
       0.23127659 0.22660765 -0.22327603 -0.10275007
000330 dd 45 6c 3e 31 ac 87 3d 88 f4 46 3d 4a 28 2c 3e
       0.23073526 0.0662464 0.048573047 0.16812244
000340 4a 01 12 3e da 8f 6a 3e e2 5c 06 be 62 b0 a3 3d
       0.14258304 0.22906438 -0.1312137 0.07992627
000350 68 1a d4 3d 7c a3 08 3e 81 b0 41 3e 09 87 1a be
       0.10356599 0.13343614 0.18914987 -0.15090574
000360 13 ae 4d be 40 ee 8f 3c 29 dd 7b be 45 20 e5 bd
       -0.20085935 0.017569661 -0.24596085 -0.111877955
000370 de 1e ba bd a5 04 36 be 53 4c 19 be ed e8 16 3e
       -0.09087919 -0.17775209 -0.14970522 0.14737292
000380 28 8d 11 be 4d 75 4b 3e de 30 22 be f7 36 62 be
       -0.14214003 0.19868965 -0.15838954 -0.2209128
000390 cc 8f 36 bd 25 d3 05 3e fd 40 37 bd 7b 0a 04 3e
       -0.04457073 0.13068826 -0.044739712 0.12894623
0003a0 68 47 62 bd 61 11 3b 3e af cb db bd 82 35 4f 3e
       -0.05524388 0.18268348 -0.10732209 0.20235255
0003b0 4a 33 4a be 03 1f 19 3d 4d a0 2a 3e 56 8f 4f be
       -0.19746128 0.03738309 0.16662712 -0.20269522
0003c0 84 09 09 be b9 ac 23 bd a8 ff 59 bd 5f 3c 2a 3d
       -0.13382536 -0.039959643 -0.05322233 0.04156148
0003d0 33 fd 29 3e aa a0 16 be 1b f9 35 3e f7 70 d2 3d
       0.16600494 -0.14709726 0.17770807 0.102754526
0003e0 3c 6a 4d 3e be d9 d9 3d 4e 0f d4 bc 59 55 70 3d
       0.20060056 0.10637234 -0.025886204 0.058675144
0003f0 3c f5 8b bd 74 bd 2a 3e a2 ac 05 be 41 ab 47 3d
       -0.06833884 0.16673833 -0.13054135 0.048747305

ResPart.stack0_0.Shortcut.bias f4 [64]
000000 c6 1f 61 3e 2c 31 16 be 09 bc 67 be 7e 75 73 bd
       0.21984777 -0.14667195 -0.22630323 -0.05943822
000010 c0 0b 21 3e 4b b4 b6 3d e3 ed 50 3d 88 fc 0a bc
       0.15727139 0.08921107 0.051008116 -0.00848306
000020 36 6a 45 be 4e 77 a1 3c ed 25 a0 bd dd 8b fb 3d
       -0.19278798 0.01971021 -0.07819734 0.12282536
000030 2b f0 b8 3c 07 3c 2b 3e 13 4a 0b bd 96 ac 1f be
       0.022575459 0.16722117 -0.03400619 -0.1559318
000040 b6 1e 0b 3d 80 32 51 3e f0 02 66 3e fd f7 e8 3d
       0.033964835 0.2042942 0.22462058 0.11375425
000050 df 68 0d be 59 e6 16 3e 86 6e 17 be 31 28 a6 3d
       -0.13809536 0.14736308 -0.14788255 0.08113135
000060 99 c4 91 bd 91 cd 6c 3c e4 07 d2 3d 4b 50 29 be
       -0.07117576 0.014453308 0.10255411 -0.16534536
000070 ca 63 0e 3e e4 07 f0 bc 9d f9 35 3e bb a4 47 be
       0.13905254 -0.029300638 0.17771001 -0.19496433
000080 c4 8c a4 3d 41 f5 84 3d 03 0e c7 3d 0b aa 1e 3e
       0.080346614 0.06492091 0.097194694 0.15494554
000090 cf 20 ac bc b1 ca 70 3d fb 9b d1 bc 7d 45 2d 3d
       -0.021011738 0.05878705 -0.025587073 0.042302597
0000a0 b8 fa 33 3e 55 2f 21 3e 2c 76 0f 3e 95 0f 4a 3e
       0.1757611 0.15740712 0.14009923 0.19732507
0000b0 a0 74 4e be 28 9b 77 be e1 a3 09 be 96 1f d2 bd
       -0.20161676 -0.24180281 -0.13441421 -0.10259931
0000c0 2f 47 26 be 6c ee 0e be 71 68 9f 3d bb 80 fd 3d
       -0.16238092 -0.13958138 0.077835925 0.12378069
0000d0 f1 6d b3 bd 94 31 bd bb ee b2 3e 3d bf 34 d2 bc
       -0.08761204 -0.0057737324 0.04655736 -0.025659917
0000e0 1e 4b 60 bb af f0 ac bd 54 23 e3 bd 1b 27 05 be
       -0.003422446 -0.08444344 -0.11090723 -0.13003199
0000f0 9e 66 13 3e 07 1d 75 be e3 15 01 be 50 f1 09 be
       0.14394614 -0.23936854 -0.12606005 -0.1347096
